results/example_gene_expression/vae_weights.pth (torch, 35376 bytes, 8 tensors)

encoder.0.weight f4 [64, 13]
000000 f0 af 1a 3e b4 4d 7c 3d 0a 15 fa bd 8a 0c 9c bd
       0.15106177 0.06159754 -0.12211044 -0.07619579
000010 b5 45 96 bd a8 b9 11 3e 98 ad 41 3d c3 dd 4b be
       -0.07337514 0.14230978 0.047284693 -0.19908814
000020 70 69 68 bd 13 7f 37 3d 4c f3 41 bd 4f 0f 27 be
       -0.056741178 0.04479892 -0.047351167 -0.16314434
000030 d6 c3 31 bd 06 c0 61 be 2e 68 97 3e 9e 28 de bc
       -0.043399654 -0.22045907 0.2957167 -0.027118977
000040 50 12 22 bd bb af 1f bc 1a 26 29 3e a5 1c 46 be
       -0.039568245 -0.009746487 0.16518441 -0.19346865
000050 a2 7e da bc ed 05 09 3e e3 4a a4 bd b8 0a 54 be
       -0.026671711 0.13381167 -0.08022096 -0.20707214
000060 8d 21 71 be 40 41 b4 3b 73 df 81 3e 31 12 a9 bd
       -0.23547955 0.0055009425 0.2536579 -0.08255423
000070 66 f7 74 bd f5 dc 8f bd 9f a4 08 be 36 34 bc bd
       -0.05980625 -0.07024566 -0.13344048 -0.09189646
000080 a4 09 57 bc 6d 0c 6e bd e8 c8 aa bd ac a3 c3 bd
       -0.013124857 -0.05811732 -0.08339101 -0.09552702
000090 30 61 01 3e 0a 94 4b be f8 d9 32 3c 31 aa 8c be
       0.1263473 -0.19880691 0.010916226 -0.27473596
0000a0 67 60 d9 be d8 e7 b7 3b 99 6b db be 8e 4e 92 bd
       -0.42456362 0.0056123547 -0.42855528 -0.07143889
0000b0 71 38 15 3d 76 f3 8b be 37 0d 77 bd 1e 60 2c 3e
       0.03643078 -0.27334183 -0.060315337 0.16833541
0000c0 d5 50 90 3e 16 e5 58 be aa ba 6a be fe 6c aa be
       0.2818667 -0.2118114 -0.22922769 -0.3328628
0000d0 f3 2f d7 be e9 20 39 3d 6e 2f 92 be f2 e1 d1 bd
       -0.4202877 0.0451974 -0.2855181 -0.10248174
0000e0 06 0d 37 bd 80 d2 b9 bd e4 21 58 be bb 9f 4d 3d
       -0.044690154 -0.09073353 -0.21106678 0.05020116
0000f0 20 ed 54 be ef a8 f9 3d b8 6d 63 be 82 ce 95 be
       -0.20793581 0.12190425 -0.22209823 -0.29259115
000100 87 56 fa bd a1 b0 05 be 79 db 1b 3e 28 c9 33 3e
       -0.12223535 -0.1305566 0.15220441 0.17557204
000110 78 64 21 bf d0 d0 da 3d ce 51 cf bd 81 ea d8 bd
       -0.6304393 0.10684359 -0.10123025 -0.10591603
000120 8f ea 7a 3d f9 2d f2 bc 78 54 ad bd 18 ec 00 be
       0.06125885 -0.029562937 -0.08463377 -0.12590063
000130 9f 3a 00 be cc 26 cb bd d7 04 90 be 1e 94 3f be
       -0.12522362 -0.09919509 -0.28128693 -0.18708846
000140 28 57 96 bc 9a 7a 65 be 87 df 0e bf 9c ee 66 3d
       -0.018352106 -0.2241005 -0.55809826 0.0563799
000150 e6 e3 2e 3e 77 7b 95 3e 14 53 aa be bc 84 5d 3e
       0.17079124 0.2919576 -0.3326651 0.21632665
000160 47 71 38 be 9f c3 09 3d b1 aa 87 3d aa ba be bd
       -0.18011962 0.033633824 0.06624354 -0.09312947
000170 6f e2 10 be 1f 02 35 be 84 2e fd 3d c7 af 29 be
       -0.14148878 -0.1767659 0.12362388 -0.1657096
000180 94 88 e4 3d e9 58 8c 3c 5a 4d 6d 3d fd c2 11 3e
       0.11158863 0.01713224 0.057935096 0.14234538
000190 b8 8d 1a bd 50 26 14 be 58 6e 29 3e e3 19 ea 3c
       -0.03773281 -0.1446774 0.16545999 0.028576797
0001a0 0b 76 13 3e 5f ed 6d 3c 21 6a 9b 3e 80 bd 35 3d
       0.14400499 0.014521926 0.30354407 0.044370174
0001b0 4f e2 25 3d ed 96 2b 3e ee e4 44 3e 24 7b 7e 3d
       0.040499028 0.16756792 0.19227955 0.062129155
0001c0 a6 04 8b 3d 94 c8 16 be 16 de 1c 3e 68 c5 3a 3e
       0.06787996 -0.14724952 0.15319094 0.18239367
0001d0 77 b5 91 3d bd 8c 59 bd e3 d1 d4 bd e8 47 c5 3d
       0.0711469 -0.053112734 -0.10391595 0.09632856
0001e0 ce 2d 95 bc db 10 8e 3c 07 f6 10 3d fa 28 a0 bc
       -0.018210318 0.017342022 0.03539088 -0.01955079
0001f0 9a 80 43 bc b2 f3 d8 3d 75 9e 4f 3e 0c 25 b2 bd
       -0.0119325165 0.10593356 0.2027529 -0.086984724
000200 61 a5 9b 3d da 61 7d 3b 84 a5 ae be 2c 63 36 3e
       0.07599903 0.003866306 -0.34110653 0.17811269
000210 d0 5b 74 3e 6f a3 ba bd a5 16 51 be 0d b9 1b 3b
       0.23863149 -0.09113204 -0.20418794 0.0023761422
000220 bb 0b 01 be 67 ed 2e 3d 83 c0 00 3e 86 36 18 3e
       -0.12602131 0.042706873 0.12573437 0.14864549
000230 f7 4d 90 bc de 66 f6 bc 05 18 a5 bd bf aa 2e be
       -0.017615302 -0.030078348 -0.08061222 -0.17057322
000240 cf 0e aa 3e e7 8c a2 3d 85 0b 71 bd 8e 7f 2f bd
       0.33214423 0.07937031 -0.058848877 -0.042846255
000250 c3 0c 74 be b1 c9 86 be cb c5 0e 3c bd b6 19 3e
       -0.23832993 -0.26325753 0.00871415 0.15011115
000260 fd 80 81 3c 19 55 57 3c bd 65 bd 3d 20 47 6d bd
       0.015808577 0.013142847 0.09247921 -0.05792916
000270 28 fe 1e 3e 2a 27 ea 3d c8 f5 ab 3d 7d 21 05 3e
       0.1552664 0.11433251 0.083964884 0.13001056
000280 10 80 03 3d 84 42 56 be 9a f9 86 3e e8 d0 a6 be
       0.03210455 -0.20923811 0.26362306 -0.32581258
000290 d8 fa 4a be 07 ed 9d 3d 96 c0 7f bd 1e 48 01 be
       -0.19822252 0.07711225 -0.062439524 -0.12625167
0002a0 3c 73 3a 3a e8 e3 c2 3e 6b 2e 93 3d 36 f7 93 3e
       0.0007112508 0.38064504 0.07186588 0.28899544
0002b0 2a a9 c7 bd 10 38 17 3e a3 f5 70 3e 70 05 b6 3e
       -0.09749062 0.1476748 0.23531203 0.35551023
0002c0 cf 6a 8b bd e8 28 7a bc 05 e5 c3 bd 39 65 5e 3e
       -0.068074815 -0.015268542 -0.095651664 0.21718301
0002d0 c2 d9 ad 3e cc b6 b0 3d 91 fc 73 be 93 aa 75 be
       0.339552 0.08628616 -0.23826815 -0.2399085
0002e0 24 3f 18 3d 4d 69 d4 3d 71 6d 16 be 8d b5 af be
       0.03716959 0.10371647 -0.14690186 -0.343182
0002f0 97 ca a4 be 3c 01 01 be 99 28 89 be d4 e7 3d 3e
       -0.32185814 -0.12598127 -0.26788786 0.18545467
000300 15 93 58 be cd da 92 bc 56 08 17 be 2f 28 82 bd
       -0.21149857 -0.017926598 -0.14749274 -0.06355321
000310 90 2d 11 be 0b 2e a6 3c e9 60 4f be e3 2c c5 bd
       -0.14177537 0.020285627 -0.20251812 -0.09627702
000320 c4 32 4c 3e b7 6a b4 be 72 5f b0 3e 73 8d 15 bd
       0.1994124 -0.35237667 0.3444782 -0.03651185
000330 cd cb 03 3e f0 31 22 be c2 16 7d 3d 93 96 66 3d
       0.12870713 -0.15839362 0.06178928 0.056295943
000340 63 a7 29 be 70 0f 49 3e 17 5d a7 bd cd 1a fb bd
       -0.16567759 0.19634795 -0.08172052 -0.12260971
000350 63 db e6 3b 48 3a 7f 3d a7 14 02 3e e9 27 81 be
       0.007045196 0.06231144 0.1270319 -0.25225762
000360 9d 05 bb 3d 38 5f 63 3e 54 3d d5 bc 73 e6 2a 3e
       0.0913193 0.22204292 -0.02603022 0.16689472
000370 6f 81 2c bc a3 59 79 3d 6e 78 bc 3c b8 ff 33 3e
       -0.010528906 0.0608765 0.023006644 0.17578018
000380 d7 13 9f 3e e5 60 e0 bc a8 40 fd bd 67 e3 80 3e
       0.31069824 -0.027389953 -0.12365848 0.25173494
000390 15 e8 57 3d a6 ae 7a be 47 4b b2 bd f1 2d 34 3e
       0.052711565 -0.24480686 -0.08705764 0.1759565
0003a0 1e 5a aa bd 3f ea b5 bd 81 65 4d be ef da 5c bd
       -0.0831797 -0.088825695 -0.20058252 -0.05391973
0003b0 65 4a 34 bb a1 9c 33 3d 15 1e 10 bd e4 da bf be
       -0.0027510163 0.043850545 -0.03518494 -0.37471688
0003c0 d3 63 9f bd be cc f0 3c 9e be 22 3e 63 36 0f be
       -0.07782712 0.029394504 0.15893027 -0.1398559
0003d0 0f 09 4f bd d9 05 60 3e 5a d5 d2 3c 2e 5e a5 3c
       -0.05054575 0.2187723 0.0257365 0.02018651
0003e0 bd 1b 5e 3e 22 c1 3b 3e 16 f9 79 bd fd 4a 9b 3d
       0.21690269 0.18335393 -0.061028562 0.07582662
0003f0 80 fd 5f be cd 41 00 bb b5 17 a6 bc ab 18 42 be
       -0.21874046 -0.001957047 -0.020274976 -0.18954723

encoder.0.bias f4 [64]
000000 a1 6b a0 be 3c 7f b7 be 9a f2 0b bf 1d 37 c4 3e
       -0.31332114 -0.3583926 -0.54667056 0.38323298
000010 b7 dd 7d 3f 73 97 d4 bf 03 0c 3d bf d6 28 07 bf
       0.99166435 -1.6608719 -0.73846453 -0.52796686
000020 1b 55 a9 bf bd 1e 47 be 10 fa de be a4 86 3d be
       -1.3229097 -0.1944532 -0.43550158 -0.18508393
000030 eb 9e fc be 78 d6 5c bf 4e e6 b6 3f 4e 48 72 bf
       -0.49339995 -0.86264753 1.4289033 -0.9464158
000040 e9 80 11 bd b0 8d 9c 3f 9a 35 2b bf e3 19 05 bf
       -0.03552333 1.223074 -0.66878664 -0.51992625
000050 4e a0 2d bf 85 3e 37 be 05 43 68 3f e5 1b 44 bf
       -0.6782273 -0.17894943 0.90727264 -0.76605064
000060 d1 c1 2b 3f 13 9f 8b be 93 85 9f 3f fa 86 a1 be
       0.67092615 -0.27269801 1.2462639 -0.3154829
000070 86 51 8d 3f 6a 97 31 bf 8d 47 16 be 47 9f ed bd
       1.1040504 -0.69371665 -0.14675732 -0.11602645
000080 1d 55 c1 bf 21 9a a7 be 25 23 3a 3f 80 0a 7b be
       -1.51041 -0.3273478 0.72709876 -0.24515724
000090 e2 13 95 be 13 df 46 be 36 69 8b be bc 9e 97 3f
       -0.29116732 -0.19421034 -0.27228707 1.1845317
0000a0 36 db f8 be 27 57 40 bf f6 b4 df 3f eb 52 30 bf
       -0.48604745 -0.75132984 1.74771 -0.6887652
0000b0 9d ae ef be aa 7e 80 be 2e fc 54 be e6 ee 2a bf
       -0.46812907 -0.25096637 -0.20799324 -0.6677078
0000c0 75 57 61 be 54 fe 0e bf 7b 27 9b bf cf 7c 23 be
       -0.22006018 -0.55856824 -1.2121423 -0.1596558
0000d0 93 47 36 bf 22 ed f2 bf dd ba a9 be 46 7f cf bd
       -0.71202964 -1.8978617 -0.33150378 -0.10131697
0000e0 07 37 0a bf ef 89 3b be 21 de f9 bf 7b ec e6 3e
       -0.53990215 -0.18314336 -1.9520913 0.45102295
0000f0 8f 93 03 3f fe 9f 7b 3f e6 2a 8f 3f 0c d6 d7 3e
       0.5139703 0.98291004 1.1184967 0.42155492

encoder.2.weight f4 [64, 64]
000000 b3 a5 06 3d d4 9f 38 3c b4 fb 08 bc fa bc 0f bb
       0.032872867 0.011268575 -0.008360792 -0.0021932707
000010 6d 21 72 3c 6f c7 2c bc 68 44 c9 bb 8d 0c d9 bc
       0.014778477 -0.010545596 -0.006142188 -0.026495242
000020 81 5b ec 3b e9 f7 b8 3c d0 56 f2 bb d6 32 0a bc
       0.0072130566 0.02257915 -0.0073956028 -0.008434972
000030 bd 57 a3 3b 4d 27 70 3a 1e 03 75 bb 5f 49 e6 bc
       0.0049848245 0.000916113 -0.0037385891 -0.028111158
000040 cf b5 85 bb db 21 c0 3a c0 c5 3d bb 35 ec aa bd
       -0.004080511 0.0014658527 -0.002895698 -0.08345834
000050 4c 64 9e ba be c8 cd 3a b4 3f f2 ba 96 75 0b 3d
       -0.0012084334 0.0015700085 -0.001848212 0.034047686
000060 ef 2e 12 3c bc 9e 82 3c 75 7b 61 bc fe f8 20 bd
       0.008922323 0.015944831 -0.013762345 -0.039299957
000070 ed a7 ea bb 20 69 90 3b 1a 9b 94 bb 99 40 08 bd
       -0.0071611316 0.004407063 -0.004535091 -0.03326473
000080 fc 47 28 bd bd c8 68 3c 95 53 fd b9 7a 8e bd bc
       -0.041084275 0.014208016 -0.00048318194 -0.023139227
000090 da 42 0b 3d 10 32 9a ba eb 7c e6 3b f9 1c 9e 3c
       0.0339993 -0.0011764187 0.0070339344 0.019300925
0000a0 7c 98 0b bd 5b 76 4a 3c 1d a6 8e 3b f2 98 8e 3a
       -0.034080967 0.01235732 0.0043532983 0.0010879321
0000b0 af 64 7e bb 8a 47 74 bc 99 30 82 bc 25 ee 0b bd
       -0.0038817336 -0.014909634 -0.015892314 -0.03416266
0000c0 e2 e9 93 bc 72 fb fd 3a bc 81 fb bb d8 58 09 bc
       -0.01805586 0.0019377305 -0.0076753777 -0.008382998
0000d0 66 f0 a4 3c 9a 05 74 3b a8 84 b9 bc c8 3a cc 3c
       0.020134162 0.0037234784 -0.022646263 0.024930373
0000e0 cb f4 f2 bb 5f ed ad 3c dd 5d 1c 3c 6c d6 99 3b
       -0.0074144355 0.021231351 0.009543863 0.0046947505
0000f0 cd 4c 28 bb 10 af 19 bd 7c 87 84 3c 2a 2a 14 39
       -0.0025680542 -0.03752047 0.016177885 0.00014130087
000100 e5 18 21 3c 02 1b 20 3c c3 02 69 3c 82 28 6d 3b
       0.0098325955 0.009772064 0.01422185 0.0036187475
000110 f9 96 6f bb 41 ba 63 3b 96 4d 37 3a c2 19 ea bb
       -0.0036558493 0.0034748467 0.0006992457 -0.007144184
000120 f5 52 66 ba f4 f1 53 3c c8 59 0a 3d 0a 32 c8 bb
       -0.0008786165 0.012936104 0.03377703 -0.0061094807
000130 e0 ae c6 3c 70 ec 4b ba d6 f7 3f 3b 2b 51 31 bd
       0.024253309 -0.00077790674 0.002929201 -0.0432903
000140 8b 5d 1d 3d 2c c9 12 ba 3f 42 16 3c ad 3f 40 3d
       0.038419288 -0.0005599435 0.009171068 0.046935726
000150 83 d9 74 3c c0 c9 6b 3b f8 b2 00 ba 1d 33 0e bd
       0.014944437 0.0035978407 -0.0004909481 -0.034716714
000160 d4 c8 c6 bb d8 0a 2f 3b bc 60 09 bc 72 d6 68 bd
       -0.006066421 0.0026709344 -0.00838488 -0.056845136
000170 b4 5e 36 3a 2e f3 5c 3b 13 29 cd 3a f6 8e 2f 3c
       0.0006956861 0.0033714282 0.00156525 0.010715237
000180 89 c5 9e bc 74 72 a4 bc 46 95 88 bb ec 6a c3 bc
       -0.019381301 -0.020074107 -0.0041681854 -0.023854695
000190 bb e4 0e 3b f8 a1 9f 3b 2f e9 a6 3b 16 dc 95 bb
       0.0021803814 0.004871603 0.0050937156 -0.0045733554
0001a0 a8 67 5a bc 3d 45 0c bc 84 17 29 bb 04 51 8d bb
       -0.013330378 -0.00856143 -0.002580137 -0.0043126363
0001b0 b3 26 ff 3a 05 c9 16 ba d6 23 7f 3b e5 fc 98 3c
       0.0019466489 -0.0005752 0.0038931272 0.018675277
0001c0 25 da ce 3c 6f 74 09 bd 0d 0d 80 3b b0 d9 91 3c
       0.025250504 -0.033558305 0.003907806 0.017803997
0001d0 32 0c 99 38 a3 dc c6 bb 98 30 83 3b d4 62 0d bd
       7.29788e-05 -0.0060687824 0.0040035956 -0.034518078
0001e0 78 42 93 3b 4e 99 ce bc c8 0b f2 3a a8 9d b7 bb
       0.0044940077 -0.025219586 0.0018466646 -0.005603511
0001f0 b3 98 da 39 29 82 a3 3c 8d 34 e2 3b 4a 27 76 ba
       0.0004169397 0.019959526 0.006903237 -0.000939001
000200 e5 26 5f bc 21 58 e1 bc 04 2f b6 bc ce 95 a5 3b
       -0.013620113 -0.027507843 -0.022239216 0.0050532585
000210 e8 ce 9a ba 82 08 03 bc 2b ed f0 3b eb fa b8 3c
       -0.001181093 -0.007997634 0.0073524914 0.022580585
000220 c8 1a 35 3b 4a e6 60 bc 52 ae b0 3c 0a ee 2c 3d
       0.002763437 -0.01372678 0.021567497 0.0422192
000230 70 77 c3 3c 19 b2 20 bb f5 a9 aa b9 eb b9 97 3d
       0.023860663 -0.0024520217 -0.00032551555 0.07408508
000240 68 05 e2 3a ed de 0b bb 83 98 44 3c f7 fe 37 3d
       0.0017244043 -0.002134259 0.011999252 0.044920888
000250 d2 b1 f2 3a ea 18 b3 bc 50 8c 05 bb a8 9d d8 3b
       0.0018516129 -0.021862466 -0.0020377822 0.006610591
000260 36 84 7a bb be a7 91 3c 96 9a b9 ba 14 59 ae bc
       -0.0038225777 0.017780181 -0.001416045 -0.02128271
000270 f4 89 21 bc dd a6 38 3b e5 39 24 bc 06 01 8a ba
       -0.009859551 0.002817563 -0.010023569 -0.001052887
000280 1d 2c 70 3c be 7f fe 3c 64 30 20 3c 52 14 48 3d
       0.014658955 0.031066772 0.009777162 0.048847504
000290 e1 65 0b bd e1 78 7d 3c 8b 7b 6a b9 bc 47 81 3b
       -0.034032706 0.015470714 -0.00022362002 0.003945319
0002a0 b2 bd 5b bb 88 81 ab bc cc 0d 1e 3c 1d 25 a2 ba
       -0.0033529815 -0.020935789 0.009646844 -0.001237068
0002b0 06 5a 9b bb 35 54 22 3d 78 a1 0b 3c 80 c7 74 3b
       -0.0047409562 0.039631087 0.008522384 0.0037350357
0002c0 52 21 46 3c f6 c5 9a bc 19 50 8c 3b 73 5c 2f 3b
       0.012092905 -0.018893223 0.0042820093 0.0026757985
0002d0 7f 79 d8 3c 42 d6 94 bb fe bd 0a bc 55 5d 06 bd
       0.026425121 -0.004542143 -0.008468149 -0.032803852
0002e0 d0 8e 8e 3a c5 6d 92 3c a9 78 03 bc 0f 35 a2 3b
       0.0010876302 0.017874608 -0.008024373 0.0049501727
0002f0 52 b6 e5 3b 6c 85 5f 3b b5 5b 31 bc 27 f9 f9 39
       0.0070102597 0.0034106625 -0.010825087 0.00047678614
000300 97 1b b5 3c a0 24 4a bd 04 66 4e 3b 71 23 70 3b
       0.022107882 -0.049351335 0.0031493912 0.0036642218
000310 17 4b 72 bb 5e d3 2d 3c e1 fb 0f bc a7 01 ba 3c
       -0.0036971027 0.010609476 -0.00878808 0.022705866
000320 46 f5 d1 bb e1 01 2c bb c5 48 7b 3c ec 3a 8a 3c
       -0.0064074127 -0.0026246237 0.015337174 0.0168738
000330 7e b2 b4 3c 90 81 ff ba 84 71 d1 3b 50 b8 2a bd
       0.022057768 -0.0019493569 0.006391706 -0.04167968
000340 04 1a 41 bc fd 00 81 ba 5d 62 07 bc ac 48 9e bd
       -0.011785988 -0.0009842213 -0.008263198 -0.07728705
000350 ac 10 80 3c aa c5 f1 bb 83 3f 0f 3b 8b 36 14 bd
       0.01563295 -0.0073782997 0.0021857924 -0.03618483
000360 8f ec 2a bb 25 b7 4d bc 2c 50 dc bb d9 98 fa bc
       -0.0026080941 -0.012555872 -0.0067234244 -0.030590462
000370 04 c5 13 ba 23 02 91 bb 57 1f c1 3b 2b c2 5f 3c
       -0.00056369626 -0.0044253035 0.0058936286 0.013657133
000380 2e 32 0a bc ad 66 3a bc 0c b1 fd bb 95 24 aa bc
       -0.008434815 -0.011377019 -0.007742053 -0.020769397
000390 9b ad f4 bc 54 68 5d bb 31 52 7c 3b 24 2e bb bb
       -0.029867938 -0.0033784108 0.0038501138 -0.0057122875
0003a0 42 f8 c8 bb cc 53 cc 3b 30 52 b7 ba bf c8 4d bb
       -0.0061331103 0.0062355753 -0.0013986286 -0.0031400172
0003b0 fd 66 10 3b ec 2f 4b 3c d9 58 1c bb c6 63 1f bd
       0.0022034042 0.012401562 -0.0023856668 -0.03891351
0003c0 1d 99 4f bc b8 dc d9 3c 0d ca 50 3b 7b 17 87 bc
       -0.012670782 0.026594505 0.0031858713 -0.016490689
0003d0 83 1c c9 bb 52 ff 19 3b f1 78 17 bd 5c 02 15 3c
       -0.006137432 0.002349813 -0.036980573 0.009094801
0003e0 9c ea a6 39 11 43 24 3c 46 48 6d bb 1e 28 26 3b
       0.00031836785 0.0100257555 -0.0036206408 0.0025353502
0003f0 0a 9f 50 3b 49 23 f2 3c 2b 4a 82 bb 26 17 9a bb
       0.0031833076 0.02955784 -0.0039761267 -0.0047024665

encoder.2.bias f4 [64]
000000 65 2c f2 39 3a 1a 87 ba 70 ea fb bb 8f 28 ae bb
       0.00046190913 -0.0010307499 -0.0076878592 -0.0053148936
000010 b5 cf fd 3b 1e e9 6d bb 18 1e 05 bc bf c6 2e 3c
       0.007745708 -0.0036302279 -0.008124851 0.010667502
000020 a9 fa bb bb 27 d6 7a 3b e1 24 3d 3b 1e de bd 3b
       -0.005736668 0.0038274617 0.0028861093 0.0057943007
000030 7c 62 0c bc ea 9a 97 b9 85 c5 16 3a fe 8b 2d 3b
       -0.008568402 -0.00028916384 0.00057514786 0.0026481147
000040 f4 3a ed 3b 5b e5 8b bb 9d 09 5b bc 77 bb 60 bc
       0.007239694 -0.0042692847 -0.013368991 -0.01371657
000050 91 5a 8b 3a 11 01 fe bb 4a 98 56 3b c6 4e bb ba
       0.0010631849 -0.007751592 0.003274458 -0.0014290444
000060 9d b9 27 ba 4a e2 2d 3b fd 77 c5 bb 76 24 c8 bb
       -0.0006398203 0.0026532584 -0.0060262666 -0.006107862
000070 c8 39 a0 bf 7d 70 08 3b 68 06 9f 3b 75 07 a4 3a
       -1.2517633 0.0020819001 0.0048530586 0.0012514429
000080 8c f4 4b bc f6 27 d9 bb 5a 39 90 bb 50 45 bf bb
       -0.012448441 -0.006627078 -0.004401368 -0.00583712
000090 f5 23 7e ba ba 60 22 bc 6f e4 d5 bb 22 2a 69 bc
       -0.0009694689 -0.009910757 -0.0065274755 -0.014231237
0000a0 ce 79 b5 bb 57 cb c9 bb a0 de 57 bb fc 43 9d 3a
       -0.005538202 -0.006158273 -0.0032939091 0.001199841
0000b0 de 23 f9 bb 61 5f e6 bb 23 18 26 bb ed 72 7c bb
       -0.0076031527 -0.007030413 -0.0025343976 -0.003852065
0000c0 3a 17 15 bc 6f 40 6f bb b5 33 5f ba 6f 69 9d ba
       -0.009099776 -0.0036506911 -0.000851448 -0.0012009571
0000d0 1c cf e9 bb 19 db f6 bb d5 90 21 ba 37 80 aa bb
       -0.007135285 -0.0075334427 -0.0006163244 -0.0052032727
0000e0 af 72 73 bc d1 f9 49 bc 25 56 ef bb 7e c7 27 bb
       -0.014858886 -0.012327627 -0.0073039704 -0.0025601084
0000f0 4f 3a 63 bf 34 00 d8 bb 34 86 06 bc ac 3e db bb
       -0.88760847 -0.006591821 -0.008210707 -0.0066908207

decoder.0.weight f4 [64, 32]
000000 84 0f af 3c 3b e8 95 bb 0a a1 ee bc 24 2c fc bc
       0.021369703 -0.004574803 -0.029129524 -0.030782767
000010 4b 00 e0 bc a4 68 bf bc d6 cd 2c bd 05 84 29 bd
       -0.02734389 -0.023365326 -0.042188488 -0.04138567
000020 e2 b2 68 3c 6a ba 7d bd 23 da 3e 3c b1 1e 81 3c
       0.014202805 -0.061945356 0.0116486875 0.015761705
000030 c2 a2 ec bc 25 80 21 bc 19 cf 33 bd 14 36 01 bd
       -0.028886203 -0.009857212 -0.043898676 -0.031545714
000040 fb d7 54 bd 75 23 39 3d 87 d5 b2 bc 91 e0 d4 3c
       -0.051963788 0.04519983 -0.021830333 0.025985988
000050 db 32 1c 3d 46 68 3d bd d1 b4 81 3d fc a3 f6 bc
       0.038134437 -0.04624202 0.06333316 -0.03010749
000060 16 96 cf 39 27 5a ba 3c b9 43 8f bc 4b fc dc 3c
       0.0003959394 0.022748066 -0.017488347 0.026975771
000070 e0 4d 76 3f 92 cb 9d 3c 24 6d 53 bc 6a bf 0e 3d
       0.9621258 0.019262109 -0.012904439 0.034850515
000080 8d 7e 6c 3c 22 29 99 bd b3 de c8 bd f7 6e 45 bc
       0.014434469 -0.074785486 -0.098081015 -0.012050382
000090 26 00 99 bc 02 40 37 bb 42 cb a8 3a 59 59 6c bd
       -0.018676829 -0.0027961736 0.0012877958 -0.057702396
0000a0 f0 44 18 3c 74 05 05 bd 89 02 2b 3d 97 c8 f8 3d
       0.00929378 -0.032475904 0.041750465 0.121476345
0000b0 8d ea 98 bc b6 89 a1 3c 45 11 53 3c 30 55 ec bb
       -0.01866653 0.019718986 0.012882535 -0.0072123036
0000c0 16 b9 29 bc 55 98 82 3d 46 29 cf bd 84 b1 32 ba
       -0.010359069 0.06376711 -0.10115294 -0.0006816613
0000d0 37 4e ea 3c 9e c2 92 bd da 06 17 bd d8 e9 b5 bb
       0.028601749 -0.071660265 -0.03687177 -0.005551558
0000e0 15 b7 de bc 9b 39 8a bd 87 37 ac bc 1b e4 fb 3c
       -0.02718691 -0.067492686 -0.021022571 0.030748418
0000f0 3e ee 68 3f fb 22 2e bd 2c 87 4e 3d b8 ea 7d 3d
       0.9098853 -0.04251383 0.05042188 0.061991423
000100 c0 a0 a2 bb d0 be 0b 3e 8e 69 73 3e 96 b4 5b 3e
       -0.0049630105 0.13647008 0.23770735 0.21455607
000110 58 76 6e be fb 00 3b 3e c9 1b 2b 3d a6 bb eb 3c
       -0.23287332 0.18262093 0.041774545 0.028776001
000120 49 46 25 3d 8a 96 b4 3b 95 b9 91 3e 42 e6 4c be
       0.040350232 0.0055111097 0.284619 -0.20009711
000130 28 47 b7 3d db ee 92 3e 8f 54 4e bd 68 17 40 bc
       0.08949119 0.28697857 -0.05037361 -0.0117243305
000140 3f eb 08 3e 7b 73 8b 3e 6a 0b 24 bd fb 14 c9 bd
       0.1337099 0.27236542 -0.040049948 -0.09818455
000150 88 27 9c 3d c5 15 57 bd 3a 02 92 be 43 c7 c8 bd
       0.076247275 -0.052510995 -0.28517324 -0.09803631
000160 bd ce 90 3e f5 e0 46 be ce 44 85 3d d5 dc 08 3e
       0.2828273 -0.19421752 0.06507264 0.1336549
000170 bb 9b 12 3f 39 8a a0 3c 04 26 ad bd fa 15 95 bd
       0.57268876 0.01959716 -0.084545165 -0.07279582
000180 e0 69 67 bc 16 a5 1c bd 79 f6 42 3d d1 7f 25 3b
       -0.014124364 -0.038243376 0.047598336 0.0025253186
000190 c6 b2 c3 bc cf 4d 80 3b 12 11 2e bd 64 20 d8 bb
       -0.023888957 0.0039155255 -0.04249675 -0.006595658
0001a0 65 c8 81 bc 45 9a ab 3c df 99 c5 3d 71 66 71 3c
       -0.015842626 0.020947585 0.09648489 0.014733897
0001b0 2b d8 93 ba fb 0b 84 bc 21 a5 8b bd f5 3e 69 bd
       -0.0011279633 -0.016118994 -0.06818605 -0.056944806
0001c0 56 74 ea bb 80 20 bd ba b0 7e 6f 3b 34 ad ac bc
       -0.0071549816 -0.0014429241 0.0036544017 -0.021078683
0001d0 b7 91 fc 3c 95 18 40 3c 23 af 61 bd ae f0 fb 3c
       0.030831201 0.011724611 -0.055098664 0.030754413
0001e0 ba 1e 8e 3c cd 42 05 bd 3a 52 0f bd 25 d7 31 bd
       0.017348636 -0.03253441 -0.034990527 -0.04341807
0001f0 86 78 2f c0 1e bb 4c bb 00 7f 2d bd 16 03 25 bd
       -2.7417312 -0.003123946 -0.042357445 -0.040286146
000200 fa 6e 95 be f5 22 3e bd ac f0 a0 3e ea 08 e6 3d
       -0.2918623 -0.046420056 0.31433618 0.11232169
000210 20 63 20 bc 03 24 7f bd 99 c4 32 be 01 3b 2f bc
       -0.009789258 -0.062290203 -0.17457809 -0.01069522
000220 64 a3 2a be f9 4c 4d be 03 2b 8c 3e 6a 32 98 bd
       -0.16663891 -0.20048894 0.27376565 -0.07431491
000230 4d e5 70 3d b4 93 df 3c d0 6e 3f bd 0c 06 c6 3d
       0.05881243 0.02729211 -0.04673654 0.09669122
000240 db cd 2c be c4 c0 90 3b ac 12 96 be 4c 1b f6 38
       -0.16875403 0.0044175107 -0.2931112 0.000117352785
000250 b9 59 a0 3d eb fd 83 be 7d 86 64 be 36 74 de bc
       0.07829613 -0.25779662 -0.22316928 -0.027155023
000260 bb fb 4b bd 0f 65 a5 3c 07 ac dc 3d 6b 3a 9c bd
       -0.049800616 0.02018979 0.10774999 -0.0762833
000270 6d d5 ba 3e 10 04 84 bd 98 0d 85 3e 7e b7 21 3e
       0.36490956 -0.06446087 0.25986934 0.15792653
000280 53 7a 02 be 70 27 09 be 24 7d 43 3e 42 d0 53 be
       -0.12741975 -0.1339395 0.19090706 -0.20684913
000290 bf e4 b1 bb 3f 8c 9e 3d 86 56 af 3d 9d 1a 8d 3d
       -0.00542888 0.077415936 0.08561425 0.06889842
0002a0 54 70 9a bd 03 66 43 be 08 8f b5 bd a8 45 79 3e
       -0.07540956 -0.19081883 -0.08865172 0.24342978
0002b0 9b c7 20 bd 48 a3 17 3e 69 13 15 bd 21 c0 01 be
       -0.03925286 0.1480838 -0.036395464 -0.12670948
0002c0 c1 38 22 3c cc 34 a2 3d f7 b9 30 bd aa f3 1a 3e
       0.0099012265 0.079202265 -0.0431461 0.15132013
0002d0 17 bd f5 bd b9 8e d4 3d 3f 18 c3 3d 71 3a 50 3e
       -0.11998957 0.10378785 0.09526109 0.20334794
0002e0 34 0b 0c be 6a ca 1b 3e 13 bf f1 3d 52 36 8a bc
       -0.13676149 0.15213934 0.11804023 -0.016871605
0002f0 bd 12 e7 3e a3 66 7b 3d a1 d4 aa 3d 6c 9c 96 be
       0.45131484 0.06137718 0.08341337 -0.29416215
000300 82 b9 21 bc 6d ef 48 bc 13 19 eb 3b be 2f ef 3a
       -0.009870889 -0.012264115 0.00717462 0.0018248481
000310 82 6b c9 bb 02 fc 3b 3c 03 56 0e 3c 7f b5 d0 3c
       -0.006146849 0.011473658 0.008687499 0.02547717
000320 41 70 b7 3c 7c a4 be bc 98 99 91 bc 53 0f 1e 3c
       0.022392394 -0.023271792 -0.017773435 0.009647208
000330 f8 85 2d bb 6d ac 01 3c 4c 13 02 bd 54 ba 1b 3c
       -0.0026477557 0.007914645 -0.031756684 0.009504873
000340 8d aa 82 3c 9a 27 81 bc fa 84 c4 bb 6e e1 9c bb
       0.015950466 -0.015765954 -0.0059972974 -0.0047876155
000350 1f 79 64 3c d8 ea ac bc 97 df 7d 3c 9a be c2 bc
       0.013944893 -0.021108076 0.0154952025 -0.023772527
000360 34 a3 bc 3b 9a 92 d7 bc b4 df 77 3c 5e f4 61 3d
       0.00575676 -0.026315022 0.015129019 0.055164687
000370 84 40 8f 3f 7c a9 89 bb 56 96 21 bb 44 bc a3 3b
       1.1191564 -0.0042011123 -0.0024656258 0.0049968082
000380 f6 74 35 be bf 25 fd 3d f0 dc 5b 3e 46 d6 f6 bc
       -0.17720398 0.12360715 0.21471 -0.03013147
000390 55 cc 0f bc 83 6f ed bd 77 e9 16 3e 44 2b 06 3e
       -0.008776744 -0.11593535 0.14737497 0.13102442
0003a0 91 8c 62 bd 39 1c a4 bd f2 58 e0 3d db f9 18 bd
       -0.055309836 -0.080131955 0.10954465 -0.037347656
0003b0 d0 31 08 3e 20 02 19 bc d0 ac 2c 3d 89 09 28 be
       0.13300252 -0.009338886 0.042156994 -0.16409887
0003c0 07 bb 23 bc 0e d5 5e 3d ba f4 ee 3d 0b c6 8e 3d
       -0.009993321 0.054402404 0.11667772 0.069713674
0003d0 16 da 15 be cb 8f 47 be 0b 65 b4 3c 72 aa 39 be
       -0.14633974 -0.19488446 0.022020837 -0.18131426
0003e0 ed 6c 7d bd 59 c2 12 be 8a 0d 45 bd 46 d1 51 be
       -0.061871458 -0.1433195 -0.048108615 -0.20489988
0003f0 0e 52 d6 3e 8c 61 35 3d 92 5f ff bd 16 95 b1 bd
       0.41859478 0.04428248 -0.124694005 -0.08671014

decoder.0.bias f4 [64]
000000 b7 c1 06 40 eb 72 f0 3f 38 2f 9e bf ca 23 73 bf
       2.1055734 1.878507 -1.235816 -0.94976485
000010 c3 16 bf bf e8 a5 98 bf c0 db 10 40 8d 68 c6 bf
       -1.4928821 -1.192563 2.2634125 -1.5500656
000020 c5 bf 08 bf a3 bd e7 3e 2a 88 74 bf f0 23 0b 40
       -0.5341762 0.4526187 -0.9552027 2.1740685
000030 eb 60 e3 3f 55 48 80 bf 55 3b 35 bf 28 13 82 bf
       1.7763952 -1.0022074 -0.7079366 -1.0162096
000040 94 00 91 3e f0 79 97 bd 03 c5 11 40 9c a2 27 be
       0.28320754 -0.073963046 2.2776496 -0.16370624
000050 07 a0 0f 40 10 1c aa bf 0c a1 97 3f 3f 02 20 40
       2.2441423 -1.3289814 1.1846023 2.500137
000060 05 38 39 bf bf bb 97 bf 20 3b 11 40 97 06 a1 bf
       -0.72351104 -1.185417 2.2692337 -1.2580136
000070 72 c8 03 40 aa 5a 0b 40 dd dc a4 bf 27 98 1e 40
       2.0591092 2.1774087 -1.2879902 2.4780366
000080 e0 11 13 40 bf 24 ed 3f fb a3 f2 be c1 24 01 40
       2.297966 1.8526839 -0.47390732 2.0178683
000090 b8 cf 89 bf e1 75 f5 3f 55 e1 f2 3f f9 30 06 40
       -1.0766516 1.9176599 1.8975016 2.096739
0000a0 2d 63 3e bf 9d 4a 1a 40 c6 b8 15 40 a4 1d 2d bf
       -0.7437008 2.410804 2.3394027 -0.67623353
0000b0 f1 cc 99 bf 3e d7 04 40 f5 cd d5 bf 05 dc 3f bf
       -1.2015668 2.0756373 -1.6703478 -0.749451
0000c0 13 b7 90 bf 06 95 eb 3e 30 32 71 bf 84 e0 8f be
       -1.130587 0.46012133 -0.94217205 -0.2810098
0000d0 23 5c c3 3e ea a3 df 3f b2 f1 d2 bf b8 51 9c bf
       0.38156232 1.7471898 -1.648001 -1.2212439
0000e0 ca 7d bb bf 97 fd ac bf d9 29 a4 3f 55 4f 18 bf
       -1.4647763 -1.351489 1.2825271 -0.5949605
0000f0 52 0c 14 40 cd 54 be 3e e4 15 0e bf 73 5f c3 bf
       2.313252 0.37174073 -0.5550215 -1.5263504

decoder.2.weight f4 [13, 64]
000000 a1 1a 37 be fc 10 e6 bd da 64 26 3e 12 2e 47 3f
       -0.17881252 -0.11233708 0.1624941 0.7780467
000010 58 dc ca 3d d9 d7 a1 3d bb ff a4 be fd f1 f7 3d
       0.099053085 0.07902498 -0.32226357 0.121067025
000020 51 9e d9 3e 38 a2 9f c1 f4 41 81 3e 0f 95 66 be
       0.42503598 -19.954208 0.2524563 -0.22517799
000030 b2 0b 83 bd 1d a9 c3 bc 45 cf 2e bd 7f 47 3c bc
       -0.06398715 -0.02388435 -0.042678136 -0.011491655
000040 f5 79 8f 3c f7 2b 82 bd de 33 86 be d0 d3 cf bd
       0.017514208 -0.06356042 -0.26211447 -0.10147822
000050 2c df ad be d5 4c 20 3e a8 cc bf 3c 72 c6 19 bf
       -0.3395933 0.15654309 0.023413017 -0.6006843
000060 a2 3a 92 bb a7 bd 3c 3e 89 1e 81 be e1 e6 ad 3b
       -0.004462556 0.18431722 -0.2521861 0.005307064
000070 a6 ed 37 be 17 ec 73 be a8 5e 1b 3d 64 e0 03 bf
       -0.1796175 -0.2382053 0.037932068 -0.5151427
000080 5f 2a b1 be 68 08 02 be 8b ae 1c 3e df f6 2b be
       -0.3460264 -0.12698519 0.15300958 -0.16793393
000090 3a 20 85 3b 93 ff c1 bd ea 55 f0 bd b3 f0 54 be
       0.0040626796 -0.09472575 -0.11735137 -0.20794944
0000a0 92 91 f1 3d 7e 0f e3 be 5b d1 87 be 47 30 98 3d
       0.117953435 -0.44347757 -0.26526913 0.07431083
0000b0 78 5e 12 be f4 11 6d be fe 28 2a 3e 64 b2 12 3f
       -0.1429385 -0.2315138 0.166172 0.5730345
0000c0 30 31 1c be 69 b8 e2 bb 0d 0e fc ba 13 06 00 bc
       -0.15253139 -0.006918956 -0.0019230262 -0.007813948
0000d0 01 45 e9 c1 08 9a 06 be c7 3a 25 3e dd ab f3 bc
       -29.158693 -0.13144696 0.16135703 -0.029745037
0000e0 f5 10 bb 3d 7d c9 3e 3e f9 23 62 bd 74 5a 18 3f
       0.09134094 0.18631549 -0.055210087 0.5951302
0000f0 8a f6 b7 be 11 db c9 3c 67 1c 5c 3f 4a 4c 3d bd
       -0.35930282 0.024640592 0.8598084 -0.046215333
000100 84 58 d7 be 7f 16 71 be c3 09 33 be e9 09 3e 3f
       -0.4205972 -0.23543738 -0.17484193 0.7423387
000110 17 84 32 bc 99 22 da bd 2d f3 21 bf ee 59 fd bc
       -0.0108957505 -0.1065113 -0.6326168 -0.03092667
000120 1c 1d f9 3e 72 59 7c bf fb 81 5b be 44 12 e3 be
       0.4865502 -0.9857398 -0.21436302 -0.44349873
000130 4b 17 20 be 17 fe a7 be b1 e1 cc bc 29 07 ba bd
       -0.15633886 -0.32811043 -0.025009962 -0.09083397
000140 0f fc 01 bc bc a5 ac bd 5f e6 03 bf 4f 28 b3 bc
       -0.007933631 -0.08430049 -0.51523393 -0.021869807
000150 a2 f8 1a bf f3 93 d0 bc f6 7e a1 bd 9c ec 82 bf
       -0.60535634 -0.025461173 -0.07885544 -1.0228457
000160 c7 1d 1a 3d c8 e1 68 be 73 04 04 bf 5f 72 78 be
       0.037626054 -0.22742379 -0.5156929 -0.24262379
000170 60 37 a0 be 49 8a fc be db de 6a be e0 10 76 bf
       -0.31292248 -0.49324253 -0.22936575 -0.961195
000180 ad e1 28 bf e9 0a 63 be 13 2c a5 be 77 9f cb be
       -0.65969354 -0.2217213 -0.32260188 -0.397701
000190 be 8b 27 3c b5 56 90 be 5b 2d 52 be ba 7d ec be
       0.010226188 -0.28191152 -0.20525114 -0.46189672
0001a0 d2 4d 80 3c 1a 4e 58 bf 77 03 1b bf 17 88 40 be
       0.015662108 -0.84494174 -0.6055216 -0.18801914
0001b0 99 42 22 be 27 8c bc be fa 4d 51 3d 42 1f 1f 3f
       -0.15845717 -0.36825678 0.051099755 0.6215707
0001c0 a7 97 a2 bc 96 9d 78 bc 8a 25 a2 bd e2 ee 2a bd
       -0.019847704 -0.01517429 -0.07917316 -0.041731723
0001d0 ed e2 1d bf 7f 73 63 be 96 4f 9f bd 9d 4d 87 be
       -0.61674386 -0.22212027 -0.07778852 -0.26426402
0001e0 ba 3a 0d be 49 e4 83 be 58 8c 98 bc 0c bd 23 3f
       -0.13791934 -0.25760105 -0.018621609 0.6396034
0001f0 62 95 14 bf 11 de f2 3d 67 8d 44 3f 96 4d a1 3d
       -0.5804044 0.11858762 0.7677826 0.078761265
000200 35 d3 52 be b6 f6 08 be 64 e5 bf 3d 4a 91 88 3f
       -0.20588382 -0.13375363 0.09369925 1.0669339
000210 c8 4e 33 3d 8d 28 34 3e 7f 03 b3 be 92 14 8d bd
       0.043776304 0.17593594 -0.34963605 -0.06888689
000220 90 a5 fe 3e 92 4a 1c c1 84 af 32 3e b9 5d 5b be
       0.4973569 -9.768206 0.17449766 -0.21422471
000230 cd dc 84 bd 89 d8 21 3c 3b 9a 55 3b 43 04 91 3d
       -0.06487427 0.009878286 0.003259315 0.07080891
000240 37 c6 31 bd 36 a6 e5 bd 0f 7d 87 be ea 1b 03 bc
       -0.043401923 -0.11213343 -0.264626 -0.008002261
000250 50 87 81 be be 8c c7 bc 2f 8c 03 3d 1f d5 fb be
       -0.25298548 -0.024359103 0.03211611 -0.49186036
000260 e4 4a 14 3d 12 0b 8b 3e 29 3c 68 be 15 6f 35 3e
       0.036204234 0.27156883 -0.226792 0.17718156
000270 2c ea 61 be 9f 4c a1 be 87 83 c6 3d 90 53 04 bf
       -0.22061986 -0.3150377 0.096930556 -0.51690006
000280 fe 00 b0 be f2 02 17 be 5d e0 b5 3e 77 a8 1a be
       -0.34375757 -0.14747217 0.35522738 -0.15103327
000290 1c 0d 97 3d d4 f4 c1 bd 1d 57 9e bd 57 26 29 be
       0.07375547 -0.094705254 -0.07731459 -0.16518532
0002a0 0b 75 2c 3d eb 14 e8 be ef 7d 76 be 4d f4 3a 3d
       0.04210381 -0.4532846 -0.24071477 0.04564314
0002b0 67 1b ab 3d ea 31 81 be 88 c6 82 3d 5d 1c 2d 3f
       0.08354836 -0.25233394 0.06385523 0.67621404
0002c0 9c 8b 27 be b9 2f 54 3d 83 0f a7 bd f7 4b 0a bd
       -0.1636185 0.051803324 -0.081572555 -0.033763852
0002d0 3a 49 9f c1 24 43 1a be 37 ba c2 3d c7 17 d7 bd
       -19.910755 -0.15064675 0.09508174 -0.10502582
0002e0 0b 92 34 3e 0a aa 06 3e 19 66 df bd ff 2f 39 3f
       0.17633836 0.13150802 -0.109081455 0.7233886
0002f0 65 88 80 be 0c 16 f8 3a 37 22 8e 3f b1 da 2b bd
       -0.2510406 0.0018927469 1.1104192 -0.041956607
000300 8b af aa bf e9 ba 5b bf 7c 73 6c be b0 43 16 3f
       -1.3334821 -0.8583208 -0.23090929 0.5869703
000310 99 b4 3c be c0 a4 5d be 47 11 ed bf a8 4d f3 be
       -0.18428268 -0.21644878 -1.8520898 -0.47520185
000320 3d ec 0c 3f 1a 61 2e bf 12 68 79 be c3 09 bc bf
       0.5504797 -0.68116915 -0.24356106 -1.4690479
000330 49 7e 6e bf 8c f3 d6 be 31 5a a2 be ee 6d ef be
       -0.93161446 -0.41982687 -0.31709436 -0.46763557
000340 fd 6e d3 be b8 70 e8 be ef 2b d0 bf 41 92 1f be
       -0.41295615 -0.45398498 -1.6263407 -0.15583135
000350 fc 1a ef bf 0b 0d f8 be 15 97 fc be 23 bb 3e c0
       -1.868011 -0.4844745 -0.49334016 -2.980172
000360 39 86 16 bf 87 48 ef be aa 81 d2 bf 4e b5 7c be
       -0.5879856 -0.4673502 -1.644582 -0.24678537
000370 cd b0 90 bf f6 3f c3 bf 25 0c 43 3e 84 32 2b c0
       -1.1303955 -1.5253894 0.19047602 -2.6749582
000380 9e a8 0a c0 c1 6a 77 bf e7 65 92 bd a8 d7 8d bf
       -2.1665416 -0.9664727 -0.071483426 -1.1081438
000390 83 f9 f2 be f7 07 69 bf b5 6e 7b bf 1a b9 ac bf
       -0.47455987 -0.9102778 -0.982158 -1.3493989
0003a0 a1 b9 85 be af 41 1f c0 1a b2 d9 bf c1 31 54 bf
       -0.26118186 -2.488384 -1.7007477 -0.8288842
0003b0 f8 2c 41 bf 09 b7 b9 bf b4 68 a5 be 92 30 26 3f
       -0.7545924 -1.4508983 -0.32306445 0.6491786
0003c0 cf 32 4d be b4 38 a9 be 88 73 82 be 56 37 71 be
       -0.20038913 -0.33051074 -0.25478768 -0.23556265
0003d0 6e fc bf be ef ec 6d bf 36 9b e4 3c f2 37 bc be
       -0.37497276 -0.92939657 0.027906042 -0.36761433
0003e0 ba a6 fd 3d 3d bc 57 be 23 76 19 bf 0a 29 3a 3f
       0.12385316 -0.21067901 -0.5994589 0.7271887
0003f0 93 5d e8 bf 92 6c 21 bf b9 82 2a 3f 23 03 85 be
       -1.8153557 -0.6305629 0.66605717 -0.25978956

decoder.2.bias f4 [13]
000000 e6 a8 93 be f9 5e 25 bf 51 dc 82 bd 27 09 a6 bf
       -0.28839797 -0.6459804 -0.06389678 -1.2971543
000010 c0 91 c2 be 50 e8 96 be d5 0e da be 0a c4 0f bf
       -0.38001823 -0.29474115 -0.4258944 -0.56158507
000020 0c 75 d4 be 9a 58 ca bf d0 26 c7 be 01 3d 03 bf
       -0.4149555 -1.5808289 -0.388968 -0.5126496
000030 8c d5 0d bf
       -0.5540397
