results/gene_expression/model/vae_weights.pth (torch, 35376 bytes, 8 tensors)

encoder.0.weight f4 [64, 13]
00000000: 831d 913e 185f cfbd a1d8 693e 8333 b83d
00000010: 07b6 153d b77e 84be 27c3 283c 88eb 023e
00000020: 26b5 fd3d d48a d3bc 84b2 93bd 790e 0f3e
00000030: 39bb 8abd bdbf 6dbe fd6d 213e 5718 bc3d
00000040: e45e 91bd f7e5 b7bd c8f3 f2bd 068a d0bd
00000050: b837 f43d e0a6 00bd b4be 1cbd 0030 66bd
00000060: 925f fc3d e0f4 46bb 4606 46be 0f10 5b3d
00000070: a80a 60be 76e6 91bd f7cd 503b 8b09 d93d
00000080: 46d6 243d ba15 6a3d aeff 96bd 058d e3bd
00000090: b6c2 283d f376 64be 3a91 04bb 58cf a83d
000000a0: ff70 95bd 3388 ac3d 6d30 c23c f1bc 2bbe
000000b0: d7ce 0d3d a494 903c 074f 543d 6ad1 f7bd
000000c0: 0515 f43d d3b2 acbd 1c10 94bd 51da 4fbe
000000d0: e348 a43e b3eb 74be 33cc b2bc b41d 8e3d
000000e0: 5710 1dbc 17b8 42be 01ae 55be d0f2 cf3d
000000f0: 2197 b0bd 59bc 873b 8241 36bd 0f3e 39be
00000100: 45c2 1c3b 2f83 763e 494a dabd e9d8 a43d
00000110: a9d7 dc3b 86f2 523e 496b 843e 0a49 973d
00000120: 4a52 813e 505a 4abd eeaf 153e 6205 6f3e
00000130: d3fa 1cbd 6fa2 4c3e 8d2a 46bc 3031 18bc
00000140: 1fd0 ff3d 174a d3bc de83 f0bb 0b2a bcbd
00000150: 92f7 893b 44f0 33bd 337f 27bd dce5 40be
00000160: d87b cebd 0a56 383e 6bd2 193e 7892 80be
00000170: 8818 a7bc 73ff b73d 6364 6cbc fd4a 6c3d
00000180: 2428 22be 5065 e23c bcf9 143e 6cc8 25bd
00000190: 262e 18be 85ce 77bd b436 003c 4ea9 41bd
000001a0: f158 4d3e 6f8a 7d3e 8940 1f3e 65cc f83d
000001b0: dae2 1fbe e140 103b 707c 06be 5e56 9bbb
000001c0: 4505 7c3d dd08 e5bd 562b ac3d 6b73 cebd
000001d0: 17c6 a23c 02b1 4b3e 63ee 96be 0e04 bc3c
000001e0: caae 69be 0ff5 443e 44ca 70be cc9f 66bd
000001f0: 4757 0f3e b2b8 f9bd e934 85bd 5276 9b3d
00000200: f14d 5abe 0e9c c93c 48a2 44be 9057 d33d
00000210: 8df9 1f3d bdea 4ebd 4eea 3c3e 8dbb 63bd
00000220: c68b 4b3d 5add 5e3e f982 593e 3964 313c
00000230: efea 8a3e bdce 01be a25f 683e 243a 03bc
00000240: 60c3 a03d 534f cf3b 66bf b0bd a36f 103e
00000250: d1df 253e 4ded 00bc 1fd6 c9bc ccbf 1dbe
00000260: 33d8 c3bd fa8a a63d ba13 2b3e 12e6 253e
00000270: 2b9d 33be dc6f 7ebe f459 c2bb 0264 19be
00000280: 214d e6be 8e69 d1bc d92d 2ebe b4a1 20be
00000290: 3334 3dbe a739 a8bd 107c a3bd 2a44 aebd
000002a0: 30c7 0fbe 9e1c 0fbe 6a3d 23be 4505 91bd
000002b0: ba22 92bc 0b3e 193e 2e96 593e 82ba 96ba
000002c0: 9eea 0ebd 5435 783e 94b2 113e e056 e1bd
000002d0: bf42 09bd 7127 823d f6ae 1b3e bc58 4d3e
000002e0: 32e0 89be 276a b3bd 504b 68be a740 90be
000002f0: ba91 8fbe 8bc3 be3d 1db4 12be dd47 a5bd
00000300: 54ab 853c af6b 983d 0cac 08be e6c5 81be
00000310: dbf9 91bc a30a e4bd 676b bdbd 68b2 d53d
00000320: 937d 2a3e 3132 77be 7996 223e 3df9 0d3e
00000330: 2136 a23d 7bfd c5bd 6f0a 55be 5c66 a33c
00000340: 5fad 6dbd 0c4c 133e a5be 063d ae66 a7bd
00000350: f29a 53be c781 ddbd 9163 e2bd c3f1 103e
00000360: 51e4 80bd a6c3 0e3a 08b4 1d3e c1e9 a03d
00000370: 9d70 8ebd 7d65 6a3e 428e 64bb 2ec5 d4bd
00000380: e56c 553d 5907 f43d be08 bfbd db5e 383d
00000390: 98e9 ffbd c25d d1bd d9e1 cf3c 7c73 83be
000003a0: b480 3b3e 4156 6fbd cc0c 12be f1f2 8e3d
000003b0: b2a9 fa3d 3550 803d 2e2c 603d 601c 713e
000003c0: 0fee 7a3e 0523 883e 919f 98bc 264b b6bc
000003d0: 3448 11be 7422 83be 68a1 1d3c d672 28bd
000003e0: 7aba 04bd 6565 ebbd d7c0 10bd 639a ce3d
000003f0: 3011 8dbd 14c7 b43c d13f 45be 200a 4c3d
0.28342828 -0.101255596 0.22836544 0.089942 0.036550548 -0.25877926 0.010300434 0.1278516
0.12388067 -0.025823034 -0.072117835 0.13970365 -0.06773991 -0.23217674 0.15764613 0.0918433
-0.07098177 -0.08979409 -0.11862904 -0.10182576 0.1192469 -0.031409144 -0.038267806 -0.05619812
0.12322916 -0.003035836 -0.1933833 0.05348211 -0.21879065 -0.07124035 0.0031861046 0.10597523
0.04024341 0.057149626 -0.07372986 -0.11110882 0.041201316 -0.22311 -0.0020228163 0.08242673
-0.07296943 0.084244154 0.023704732 -0.16771294 0.034621086 0.017649002 0.05183318 -0.121004894
0.11918072 -0.084325455 -0.07229635 -0.20298125 0.32086858 -0.23918037 -0.021825885 0.06939259
-0.009586415 -0.19015537 -0.20867158 0.10153735 -0.086225756 0.004142326 -0.044496067 -0.1809008
0.0023919505 0.2407348 -0.106587 0.08049185 0.006739576 0.20600328 0.25863102 0.07386978
0.25258094 -0.049402535 0.14617893 0.23341897 -0.038325142 0.19983838 -0.012095106 -0.009289071
0.12490868 -0.025792165 -0.0073399385 -0.091877066 0.004210421 -0.043930307 -0.04089279 -0.18837684
-0.10082215 0.18001571 0.15021674 -0.25111747 -0.02039744 0.0898427 -0.014428231 0.057688702
-0.15835625 0.0276362 0.14548391 -0.04047434 -0.14861354 -0.060499687 0.007825542 -0.047280602
0.2005346 0.2475984 0.15551962 0.1214836 -0.15613881 0.0022011327 -0.13133407 -0.0047405204
0.061528463 -0.11183331 0.08406703 -0.10080608 0.019869847 0.19891742 -0.2947875 0.022951152
-0.22820583 0.19234107 -0.23514658 -0.056304738 0.13998137 -0.12193431 -0.065042324 0.07590927
-0.21318795 0.024610545 -0.1920253 0.103194356 0.03905635 -0.050516833 0.18448755 -0.055598784
0.049693845 0.21764126 0.21241368 0.010827118 0.27132365 -0.1267652 0.22692731 -0.008009467
0.07849765 0.006326595 -0.08630256 0.14105086 0.1619866 -0.007869077 -0.024638234 -0.15405196
-0.09562721 0.081319764 0.16706744 0.16201046 -0.17540424 -0.24847358 -0.0059311334 -0.14979556
-0.4498072 -0.025563028 -0.17009677 -0.15686685 -0.18476944 -0.08214121 -0.079826474 -0.08509095
-0.14040828 -0.1397576 -0.15941396 -0.07081083 -0.017838825 0.14965074 0.21248695 -0.0011499675
-0.034891717 0.24239093 0.14228278 -0.11002898 -0.03351092 0.06355179 0.15203461 0.2005338
-0.2692886 -0.08760481 -0.2268498 -0.28174326 -0.28040868 0.093146406 -0.1432652 -0.080703475
0.016317047 0.07442414 -0.1334688 -0.25346297 -0.017819336 -0.11134841 -0.09249001 0.10434419
0.16649465 -0.2414024 0.15877713 0.13864608 0.079204805 -0.09667488 -0.20804761 0.01994627
-0.058026668 0.14384478 0.032896657 -0.081738815 -0.20664576 -0.10815769 -0.11054147 0.14154725
-0.06293548 0.0005446024 0.15400708 0.07857085 -0.06955073 0.22890277 -0.0034874831 -0.103891715
0.052105803 0.11915464 -0.09327839 0.045012336 -0.12495726 -0.10222961 0.025376247 -0.25674045
0.18310815 -0.058431868 -0.14262694 0.06979931 0.12239398 0.06265298 0.054729633 0.2354598
0.24504875 0.26589218 -0.018630775 -0.02225263 -0.141877 -0.25612223 0.009621002 -0.04112514
-0.0324044 -0.11493949 -0.035340156 0.10088041 -0.06888044 0.022067584 -0.19262625 0.049814343

encoder.0.bias f4 [64]
00000000: 4f6d cc3e 130e 37be 959d 623e fbd1 573e
00000010: e212 e43e f38a 20bd bd07 13bf 0cad 85bd
00000020: dd84 2dbf 4d15 12be 9cca 853d c6e0 26bf
00000030: c535 493e bb3a bbbe 2bbe b33e 9a5c a83e
00000040: 3324 443e e0b7 39be 51aa 2dbf fb97 95be
00000050: bf77 9fbe 7711 b53e f24c b1be 2335 723e
00000060: 99ce 1b3f e88a c0be 7d6d b43e 5a2d a73e
00000070: 977e ee3e e040 d13e f38f 763e 6bdc 843c
00000080: 5b43 a5be 5c73 ff3e 6afc 0bbe 3f6f 113f
00000090: 8973 bc3e 5d98 1bbf 17b9 bf3e a8d5 6bbe
000000a0: f3c7 893e 619c e23e 9ee5 42be 683f b93e
000000b0: aedf 48bd f66e d4be 5002 283f 16fd 43bd
000000c0: bbca 38bf c41a 393e f9a1 963e 4988 2e3f
000000d0: 63b7 953e 5568 cc3e 1ddc 00bf d0f6 87bd
000000e0: 83bd 5bbf ca6c 4ebf b264 fe3e b38a 4cbe
000000f0: 50ba dd3d d256 27bf 0f5d 8d3d 7967 84be
0.39927146 -0.17876463 0.22130425 0.21076195 0.44545656 -0.039195012 -0.5743368 -0.06527147
-0.6778086 -0.14265938 0.06532785 -0.6518673 0.19649418 -0.36568245 0.35106024 0.3288315
0.19154434 -0.18136549 -0.6783801 -0.29217514 -0.31146047 0.35364887 -0.34629017 0.23653083
0.6086212 -0.37605977 0.35239783 0.32651788 0.46580955 0.40869808 0.2407835 0.016218385
-0.3227795 0.498927 -0.13670507 0.56810373 0.36806896 -0.6077936 0.374459 -0.23030722
0.26910362 0.44259933 -0.19032905 0.36181188 -0.049041443 -0.41490906 0.6562853 -0.047848783
-0.7218434 0.18076617 0.2942045 0.68176705 0.29241475 0.3992335 -0.50335866 -0.066388726
-0.85836047 -0.8063475 0.496862 -0.19974785 0.10826552 -0.6536685 0.06902515 -0.25860193

encoder.2.weight f4 [64, 64]
00000000: e900 fcbd f1be b23b 379f e53d eb0b 4f3e
00000010: 88e3 723d 481b 423d c24c a93d 0672 2d3d
00000020: 0c8f 0a3e 99cf af3b cbdc 943d 2add d9bd
00000030: 0cd9 9ebc f48b 41be a170 6dbb 4064 e43d
00000040: 61d7 3a3c ecf3 cabd 3003 86bb 8a31 a03c
00000050: 873f b23d 4392 f93d 60b5 a43d 2ef9 193d
00000060: e9b3 093e 7212 85bc 43e3 41be 5716 a9bd
00000070: 8ad6 34bd bed9 453e e723 a03c 9f46 20bd
00000080: 12ce 0e3c 7876 95bd 45d8 86bd bfaf d03c
00000090: 69d1 85bd 5970 6abc ff69 79bd 0d37 59bc
000000a0: f6b9 e33d d313 343d 12be 913d 380c 2f3d
000000b0: dcf9 0a3d 8676 d0bd 3276 97bd b9d6 aebd
000000c0: e5de c2bc b157 333c 8ed9 6b3c bf51 05be
000000d0: a038 01be 4233 1cbd fc37 233b 6fd0 a9bd
000000e0: 5449 6e3d d17c 19be b7df 383d 6290 50bd
000000f0: 6394 acbd 1104 11bd fb3c 5a3c 81f0 74bd
00000100: 1577 313d a5d8 553d 9e84 89bd 3894 48be
00000110: 32a4 0bbe 243e acbc 7da3 69bd 46d6 c6bc
00000120: ca52 54bd 5618 523a 7109 6dbd 1b32 7b3d
00000130: 8267 ab3c 2ffd 143e e5f6 4dbd 41d2 55bd
00000140: a651 b53b 1b93 db3d 19db 6bbd 61b3 88bc
00000150: 47db e3bd 1701 e5bd 5689 21bd 1392 82bd
00000160: 39a3 11be 2aca 683d df7a 513e 4e07 053d
00000170: 4fd7 b53d 47b2 02be 07ad b0bd 601e 623d
00000180: b395 9d3d 2a9e 723d 2f59 9f3b d5bc d6bc
00000190: 3c4a a03d ceef c53b f846 323d 49d2 823c
000001a0: 0dd0 1ebe e563 10bd b3a4 15bd 149f 86bd
000001b0: 4767 dc3d ba56 563d bc0a 0e3d 4b02 393d
000001c0: 993e 023d d370 28bc eeb8 063d ecbe 313e
000001d0: b9f4 bd3d 9a6a 783c ad00 83bc 42ac bfbd
000001e0: a0d6 42bd bb46 fa3d 9476 853c 3828 103d
000001f0: 77de 7f3d 47fe cf3a 086c b3bc ff3e 553d
00000200: 7106 bb3d c863 f83c 8d27 27be bcd1 2abe
00000210: 961b c3bd 6cec e2bc faa5 17bd 217f 023d
00000220: 19f6 893b 6e40 c83c 90ae e1bb da6a ee3b
00000230: fcf7 2a3b 53ce 073e 01c2 e73b bf8c bfbc
00000240: 0b87 163d 2311 5b3c e368 9ebd 90df 7ebc
00000250: e4f0 0dbe 8182 81bd 8507 4fbd 060d 4f3c
00000260: 38b2 de3b 44eb dd3c e681 073e f56c 8c3d
00000270: 59a1 123d 1a83 52be 06a6 b2bc a54d 0c3c
00000280: 6abb f5bc 5f44 233d 3e8d 15bd 132a 28bc
00000290: c84d 39bd ff1b b3bc 6065 4f3d 8608 263a
000002a0: b68e 19be af65 5abd 3256 71bd 502c ba3c
000002b0: 022a 903c 2f20 9f3d 42e5 01b8 3574 173b
000002c0: 03c7 1bbd 3af2 4abc 42ce 0dbd f31d 1a3e
000002d0: 39ee 983d 6618 db3c 4205 7fbb 7660 a3bc
000002e0: f2fd dabc b98d 0f3e 5a7e ae3c 0bd5 153d
000002f0: 236b 443d ab77 633d f5db c1bb 0021 98bb
00000300: 683d 04bc 5025 fe3c e57c 363c 78f8 47be
00000310: b464 b4bd 5b6c 73bc 4a28 55bd e3e7 933c
00000320: d58c 8dbc c711 6ebb 9cee 45bd 15c0 7e3d
00000330: 78d2 1c3d 8e86 ca3d 6acf 553d 1155 c6bc
00000340: 940d 8a3d 8ff5 8d3c 9b7b 2fbc 25ce 28bd
00000350: fc97 57bd 93ad f8bd a762 65bc 805f 9cbd
00000360: 8ae6 12be 7372 073d 242e 2c3e 56d3 4e3d
00000370: 11f8 1c3d 26ca 0dbe 9d50 5bbd 82f0 613d
00000380: d57c af3d 3973 ce3c 8a2b 1bbd eff1 043c
00000390: 2cfb d9bb 9ca4 253b de6b 673d 0229 db3a
000003a0: d011 adbd b9f1 a23c c285 42bd 5d75 bebc
000003b0: a158 0c3d 8e4f a53d 253a 853c 93b8 063c
000003c0: 4e95 3abc b60b 3e39 814e 77bc 08ea 0e3e
000003d0: 2252 a73d 311a 063c eb58 76bc 88ae edbc
000003e0: aed4 c0bc 2028 a13d 4b53 6c3d 2d43 22bd
000003f0: 87b3 783c eddd 383c 6d2d c53b 8a1d 3b3d
-0.12304861 0.005454891 0.112120084 0.2021939 0.059299022 0.0473893 0.082665935 0.04234507
0.1353113 0.0053653237 0.072686754 -0.10637887 -0.019390605 -0.18901044 -0.0036230462 0.11151934
0.011403889 -0.09909806 -0.0040897354 0.019554872 0.08703523 0.121861 0.08042407 0.037591152
0.13447537 -0.016244147 -0.1893435 -0.08256214 -0.044149913 0.19321343 0.01954837 -0.03912985
0.008716123 -0.07297987 -0.06584219 0.025474427 -0.065340824 -0.014309012 -0.0608921 -0.013257754
0.111194536 0.04396422 0.07116331 0.042736262 0.03392969 -0.101788566 -0.07395591 -0.08537049
-0.023787925 0.0109462 0.014395131 -0.13019465 -0.12619257 -0.03813482 0.0024905195 -0.08291709
0.0581754 -0.1498902 0.045135226 -0.050918944 -0.0842674 -0.03540427 0.013320203 -0.059799675
0.043326456 0.05220856 -0.06714748 -0.19587791 -0.13636854 -0.021025725 -0.05704068 -0.024272095
-0.051836766 0.00080144906 -0.057870332 0.06132708 0.02092338 0.14549707 -0.050284285 -0.052202467
0.005533415 0.107214175 -0.057581995 -0.016687097 -0.11125808 -0.111818485 -0.039437614 -0.06375518
-0.14222421 0.056833424 0.20457028 0.03247767 0.088789575 -0.1276332 -0.08626752 0.05520475
0.076945685 0.05923287 0.0048629264 -0.026213089 0.07826659 0.00604055 0.043524712 0.015969412
-0.15509053 -0.035251517 -0.036534023 -0.065733105 0.10761886 0.052328803 0.034678206 0.045168202
0.03179798 -0.010280806 0.032891206 0.17357987 0.09275193 0.015162135 -0.015991533 -0.093590274
-0.047567964 0.12220522 0.016291894 0.035194606 0.06246802 0.0015868627 -0.0219021 0.05206203
0.09132088 0.030321017 -0.16323681 -0.1668157 -0.09526746 -0.027700625 -0.037023522 0.03185952
0.0042102453 0.024444785 -0.0068872645 0.0072759213 0.0026087752 0.132623 0.0070726876 -0.023382543
0.03674988 0.013370785 -0.07734849 -0.015556231 -0.13861424 -0.0632372 -0.05054428 0.012637382
0.0067961477 0.027089722 0.13233146 0.068567194 0.035798404 -0.20557824 -0.021807682 0.008563434
-0.029996593 0.039860126 -0.036511652 -0.0102639375 -0.045240194 -0.021863936 0.050633788 0.00063336676
-0.14995846 -0.05331963 -0.058920093 0.022726208 0.017598156 0.077698104 -3.096951e-05 0.0023110036
-0.03803159 -0.012386853 -0.03462053 0.15050487 0.07467312 0.026745033 -0.0038913046 -0.019943457
-0.026732419 0.14018907 0.021300483 0.036580127 0.047953736 0.055534046 -0.0059161135 -0.004642606
-0.008071281 0.031023651 0.011138176 -0.19528377 -0.0880827 -0.014857377 -0.052040376 0.018054908
-0.017279068 -0.0036326514 -0.04832326 0.062194902 0.038286656 0.098889455 0.05219976 -0.024210485
0.06740871 0.017329006 -0.010710622 -0.04121222 -0.052635178 -0.12142482 -0.014000571 -0.07635403
-0.14345756 0.03306813 0.16814476 0.050494514 0.038322512 -0.13846645 -0.053543676 0.055161007
0.08568732 0.025201427 -0.03788332 0.008114322 -0.0066522565 0.0025275117 0.056499355 0.0016720595
-0.08450663 0.019890653 -0.047490843 -0.023249323 0.03426421 0.080718145 0.016263077 0.008222717
-0.011388136 0.00018124175 -0.0150944 0.13956463 0.081699625 0.008184955 -0.015035848 -0.029013887
-0.023538914 0.07868981 0.057696622 -0.039614845 0.015179521 0.01128338 0.006017378 0.045682468

encoder.2.bias f4 [64]
00000000: 47b0 98bc 810d 7b3d c6f7 303c d71a e73c
00000010: 6016 5c3d 7827 d8be 065b ddbc 87b9 53bd
00000020: c70b b9bc f50a c93c 3c02 65bd 0cae 563c
00000030: d6bc 1fbc f94a c93d 092b f33d 0c45 11be
00000040: cc4f a43d 866a 3b3d b630 d13c 5bc6 6dbd
00000050: b0b3 283b 2938 6f3d 5c6b 0fbb 03e7 b53c
00000060: b223 14bc 4cdb 833d 0775 093d 6942 983c
00000070: e2e4 89bd 6b3f 9b3d be31 743d fe35 e23c
00000080: 4e48 e6bd 0004 2cbe c320 d1bd 73c5 c9bd
00000090: 4114 cfbd 0468 02bf c60f 49bd cb8e d3bd
000000a0: 7e67 79bd f2e3 1abe 4062 c3bd 48d4 c2bd
000000b0: 56c4 c8bd 5227 57bd acfb e1bd afdf c2bd
000000c0: 3006 32be 163a fbbd be8f efbd 803e d5bd
000000d0: eb1d a7bd cb9b 38be 0963 c0bd d362 abbd
000000e0: 34d6 82bd 49ef e5bd b567 08be e3b6 01be
000000f0: f049 44be d87a 01be 7dd5 f8bc 9911 dabd
-0.018638743 0.061292175 0.010801261 0.02821104 0.053732276 -0.42217612 -0.027020942 -0.051690605
-0.022588624 0.024541358 -0.055910334 0.013103019 -0.009749612 0.09828753 0.11873443 -0.14186496
0.080230325 0.045755886 0.025535922 -0.058050495 0.0025741868 0.058403168 -0.002188406 0.022204882
-0.009041714 0.06438312 0.03355887 0.018586354 -0.06733109 0.075804554 0.05961775 0.027613636
-0.1124426 -0.16798401 -0.10211327 -0.098521136 -0.10111285 -0.50939965 -0.04908731 -0.1032997
-0.060889713 -0.15126017 -0.09540224 -0.09513146 -0.09803073 -0.052527733 -0.11034331 -0.095153205
-0.17385173 -0.122669384 -0.116973385 -0.104123116 -0.08160003 -0.1802818 -0.093938895 -0.083684586
-0.06388512 -0.11227281 -0.13320811 -0.12667422 -0.1916883 -0.12644517 -0.030375237 -0.10647888

decoder.0.weight f4 [64, 32]
00000000: 65d2 26be ddb7 0b3e bdfc 3c3e 5ec0 813e
00000010: 86ce 403d 55f7 243f 887d 193d 53c3 2d3e
00000020: 43ee 1c3d 0de5 f6bd b647 bbbd aec9 f7bc
00000030: d9d8 063e cb25 e0bd 9ed2 3bbd 7522 00be
00000040: 7a2e 3a3c 9a40 5abd 16f5 b2bb d30b 023e
00000050: fe2f ae3d 83ad 86bd 4c72 11bd 1bcc fd3d
00000060: f682 653d 1330 35be 65b2 25be b044 1c3d
00000070: 59ab 41be c32b a2bd 3167 f2bd 6e32 3f3e
00000080: e0cc 55bd 36ed 993c 3716 41be a9ad 963d
00000090: 3823 01bc 55a6 3a3f 3150 343e 203e 6abd
000000a0: 4a92 3ebe 14a2 4b3d 4e5c 1cba d07a e73d
000000b0: 1fea ebbd 91e6 9b3d 7284 513d 1e37 013e
000000c0: ec68 be3d be2b 383e c87e 503e a7f4 213d
000000d0: ba80 4fbc fdfc ff3d e073 6b3d c9f4 70be
000000e0: e752 773d 3c9c a3bd 9f7c 26be bb3b 0a3e
000000f0: 7f55 b93d 6cca 98bc 4209 d53d 941e 1b3d
00000100: 4846 433e 331d 243d 8fe6 b0bc 9323 143e
00000110: a489 f5bc 2e4e ce3e 27ee c3bc 3369 fbbd
00000120: 3e45 123e d59c c4bd d56a 07be 5ef0 f4bd
00000130: 4898 dfbd 5551 063d 4157 00be 58cf 9d3d
00000140: e26f 3ebd 8d88 a3bc 7f67 933d 0a1e 09be
00000150: 3a97 9e3d d23c 50bd 2026 efbd e721 bebc
00000160: e17c 99bd 3e71 c8bd 4b6d dcbc d63a 113e
00000170: 2a65 b9bc a7a5 c43d 23a3 91bd c167 f63a
00000180: 6df2 eb3c 59a3 ec3d bf3a 8dbd 61bb e63c
00000190: 0e01 1b3e fea0 debf 96d4 49bd 86b2 bcbc
000001a0: 3e30 8fbd fdfa 8a3d 7a8c 003d 6be8 9abd
000001b0: c6aa 5abd 8255 093d b950 973c c353 ddbd
000001c0: 03f4 a03d 37d8 a4bd 36ba df3c 1d15 1b3e
000001d0: 568e 5bbd 0164 22bd 1190 d3bc adb0 5a3d
000001e0: d046 21bd e204 073e 0570 c7bd 19c7 9039
000001f0: 5955 a3bd 146d 91bd a84b 8f3d cbb2 833a
00000200: 93f9 b3bc 5d1c 19be 55f5 833d c9b5 8bb8
00000210: edc1 113e 09f4 ce3e 7f41 443e e9a7 3e3d
00000220: 9992 dfbd 8d85 f4bd 62cb f73d d40b c63a
00000230: cd93 15bd 11b4 1e3d 457f 163e 0409 4c3d
00000240: 2b5f bebd 6c8d ff3d b6ee 793e 4ff5 9ebc
00000250: 725a b33d 4228 47bc ac83 26bd c884 05be
00000260: fdf8 cdbd 8bc6 b63b f8a8 bb3d d152 04be
00000270: 39e9 2ebe 3a5c 1fba 4eac c73d 120f d13c
00000280: c399 79bd ac3e dc3b 450f 9fbd f5d1 eabc
00000290: ba3f 343d 8355 073f 87d3 cabb 382e 46bd
000002a0: 0a8f 61bd 06eb bbbc da14 003e b26d 1dbd
000002b0: fcc7 34bd a2fd 243d e17b a83c fc40 cfbd
000002c0: 3805 033e 7023 91bd c1d3 48bd 9cc8 83bb
000002d0: 301d 03bd a4f6 da3a e413 85bd da0a cdbd
000002e0: 9742 603d f6aa d13c 1e88 30bc fa87 a6bd
000002f0: 0adf febc a58b e83c 975f 88bd fe43 3cbd
00000300: 59a2 44bd be18 cdbd ce57 633c dc9d e5bd
00000310: 558b 6cbe 7ac6 243f d84d 66be e76c afbd
00000320: c7b6 cf3d 57d5 53bd ca01 72bd a4b3 e0bc
00000330: 3443 063c 9c9e c7bb 9722 c5bc 46b1 fabc
00000340: 22b0 ccbd 54c3 2c3d 5c46 263e caaa 3abd
00000350: 64f2 b83d 63fb 83bb 11b7 a6bc e22d 3abe
00000360: c217 8bbd 4f6c 5b3d 92ea 3abb 894a 453c
00000370: 512c f33d 0532 eabd 5a5a aebd f390 34bd
00000380: d6e4 933d 4fb0 fe3d 1a33 18be 57d9 113e
00000390: f742 a33c ac5d 063f e51a 3abe b26d 563d
000003a0: 8e9a 2cbd bad6 c4bd b5d7 1b3e 7509 abbc
000003b0: c5de c5bd a71d 22bd f046 e23c 55a5 303d
000003c0: 78dd 22bd ffa9 a83c e580 383c f378 443e
000003d0: aba1 dfbd de28 393d a7a0 0d3e ded3 d5bc
000003e0: fd70 2bbe 2cec 0fbd 6058 a7bc 5f2a 343d
000003f0: 811e ddbd 5427 0b3d 70c8 81bc 0aef 6cbb
-0.16291197 0.13644357 0.18455787 0.25342077 0.047071956 0.644399 0.03747323 0.16969042
0.03831316 -0.12055407 -0.09144537 -0.030247536 0.13168658 -0.109447084 -0.045855157 -0.12513144
0.01136362 -0.053284265 -0.0054613454 0.12699823 0.085052475 -0.065760635 -0.035509393 0.12392446
0.056033097 -0.1769412 -0.16181333 0.038151443 -0.1891302 -0.07918503 -0.118360884 0.18671581
-0.052197337 0.018789869 -0.1885613 0.07357342 -0.007881932 0.7291005 0.17608716 -0.057188153
-0.18610492 0.049715117 -0.0005964682 0.113027215 -0.115192644 0.076123364 0.0511517 0.12618682
0.09297356 0.17985436 0.20360863 0.03953996 -0.012664968 0.124994256 0.057483554 -0.23530878
0.060381796 -0.07988784 -0.16258477 0.13499348 0.0904951 -0.01865121 0.104021564 0.03787096
0.19069779 0.04006691 -0.021594314 0.14466695 -0.029972859 0.4029402 -0.02391727 -0.122759245
0.14284226 -0.09600226 -0.13224347 -0.11959909 -0.10917717 0.032792408 -0.12533285 0.07705563
-0.04649342 -0.019962573 0.07197475 -0.13390365 0.07743688 -0.050839253 -0.11677194 -0.023209525
-0.07494522 -0.09787224 -0.026907584 0.141826 -0.022631247 0.09601908 -0.07111194 0.0018799232
0.028802121 0.115545936 -0.068959706 0.028165521 0.15137121 -1.7392881 -0.049275003 -0.023034345
-0.06991623 0.067861535 0.03138397 -0.075638615 -0.05338552 0.033528812 0.018471109 -0.10806992
0.078590415 -0.08049052 0.027310472 0.15144773 -0.05360254 -0.039646152 -0.025825532 0.053391147
-0.039374173 0.13185456 -0.09738163 0.0002761416 -0.07975263 -0.07100883 0.06996852 0.0010047791
-0.021969592 -0.14952226 0.06443278 -6.6618966e-05 0.14234133 0.4042056 0.1916561 0.04654685
-0.10916633 -0.11939535 0.12099339 0.0015109726 -0.036517907 0.038745943 0.14696987 0.049813285
-0.092954956 0.12478146 0.24407467 -0.019404082 0.087574854 -0.012155594 -0.040652916 -0.13038933
-0.10057256 0.0055778674 0.091630876 -0.12922217 -0.17081155 -0.00060791115 0.097496614 0.025519881
-0.060937654 0.0067213383 -0.07766584 -0.028664568 0.044006087 0.52864856 -0.006189767 -0.04838392
-0.055068053 -0.022939216 0.12507954 -0.03843469 -0.044136032 0.040280946 0.020566883 -0.10119817
0.1279496 -0.07086837 -0.04903007 -0.0040217172 -0.032010257 0.0016705585 -0.064979345 -0.100118354
0.054751005 0.025594216 -0.01077464 -0.08131404 -0.031112213 0.0283869 -0.06658857 -0.04596328
-0.04800639 -0.10014485 0.013875915 -0.1121175 -0.23100026 0.6436535 -0.22490633 -0.08565693
0.10142284 -0.05171713 -0.059083737 -0.02742941 0.008194733 -0.0060919058 -0.024064345 -0.030602109
-0.09994532 0.042178467 0.16237777 -0.045573033 0.09030607 -0.0040277704 -0.020350965 -0.18181565
-0.06791641 0.053570088 -0.0028521162 0.012041696 0.11873687 -0.11435322 -0.08513327 -0.044083547
0.07221381 0.12435972 -0.14863244 0.14243065 0.019929392 0.5248668 -0.18174322 0.052350707
-0.042139582 -0.09611268 0.15219004 -0.020878533 -0.096616305 -0.03957906 0.027621716 0.043126423
-0.03976199 0.020588873 0.0112612 0.19186763 -0.109195076 0.04520499 0.13830815 -0.026102003
-0.1674232 -0.03513734 -0.020427883 0.04398572 -0.10796834 0.033973053 -0.015842646 -0.003615322

decoder.0.bias f4 [64]
00000000: e2c5 2c3f 1dbe 553f baab 993f d6ab 613e
00000010: c6dd 8e3f d33f a93f aab2 993f bfc7 8c3f
00000020: 3709 183e 15a5 893f 69b6 c53e 7cf9 193f
00000030: 35fc ee3e 8853 913f 5da4 503f 069c 853f
00000040: 42ac 923f f934 4f3f 5076 a73e bace 8b3c
00000050: 4c4e 753f 2707 733f 4330 aa3e 2b9c 473f
00000060: 8d5a f63e 412a 273f f5be d6bd c961 523f
00000070: 9c8e e13e 3454 8a3e 8271 113f d125 463f
00000080: 2c08 413d 61d8 963f ec6d 8b3f d1fd 873f
00000090: 1bd0 613f 0354 4e3f a236 803f 7488 723f
000000a0: 2cb8 113f 2eeb 363f 57d4 fd3e e11c 8d3f
000000b0: be01 d03e a818 f03e bb19 6e3f c6d9 9a3f
000000c0: 6ec9 8d3f fc06 383f dc5c 483f d6c4 b33e
000000d0: 48ac 113f df94 743f cd44 6c3f 9382 373e
000000e0: de61 4e3f b212 c43e 0f89 1d3f 6e64 9d3d
000000f0: 5ba5 5b3e 496e 833f 51e1 783f cf89 9e3f
0.67489445 0.83493215 1.2005532 0.22038206 1.116143 1.3222603 1.2007649 1.0998458
0.14847265 1.0753504 0.3861573 0.6014631 0.46676794 1.1353617 0.815008 1.043824
1.1458819 0.80940205 0.32707453 0.017066348 0.95822597 0.9493279 0.33239946 0.7797267
0.4811596 0.6529885 -0.10485641 0.8218046 0.44054115 0.27017367 0.56813824 0.77401453
0.047126934 1.1784784 1.089292 1.0624334 0.8820817 0.8059694 1.0016673 0.9473946
0.5692165 0.71452606 0.49576065 1.1024438 0.4062633 0.4689381 0.9300801 1.2097709
1.1077096 0.7188566 0.7826669 0.3511111 0.56903505 0.9553966 0.9229248 0.17920904
0.80618083 0.38295513 0.6153726 0.07685171 0.21449797 1.0268031 0.97218806 1.2385806

decoder.2.weight f4 [13, 64]
00000000: 1fc0 f4bd 3982 13be 17fe debe 0c76 033f
00000010: 6676 82be ab4b 02bf 6f9c e1be 6ad8 8fbe
00000020: d46b 4abd 4c61 cbbe 1787 8fbd 1256 1ebe
00000030: 6b5e 0dbe 2cee bbbe 68da 1dbe 2e74 cabe
00000040: ff32 d0be 6bec 9cbe 50c6 443d 557d b53e
00000050: 2ab3 a3bd 72f5 19be 555e f1ba 36f5 b2bd
00000060: 3f75 c2bd d4ad 8bbd dc6a 1e3f dbcf 45be
00000070: b41d f8bd d6b3 99bd d143 03bd fb2e eabd
00000080: 7362 b33e aefe 03bf e902 21be 0c53 98be
00000090: 15f9 69be e668 ed3e 1469 81be dcd3 93be
000000a0: a197 a7bd 6138 12be 2326 38bd 0706 65be
000000b0: 4481 c03d dc2d 04be 7da3 69be 90be b9be
000000c0: d21e a9bd e3b5 183d a634 9fbe 2495 92be
000000d0: 8cae 83be 3f82 0dbe 3965 0bbe 14af da3e
000000e0: f32e 24be 7550 18be c778 d3bd 8581 fc3e
000000f0: b2b2 bdbd 9a3f 3cbe 1b8e eebe e1db 00bf
00000100: 2792 b4be e9a3 a4be 2843 03bf 7382 c53e
00000110: 15db 09bf d539 43bf 6b8d 1abf 88e6 f4be
00000120: 9fb6 dabd bb85 25bf ed50 40be c297 45be
00000130: e7c2 b5be e073 1abf 222c 8bbe 2661 dfbe
00000140: b76b 05bf bca2 97be d6c5 1abe 75cd 013f
00000150: 86bb c8be 2505 c3be 574a 6dbe 7a22 acbe
00000160: b02a 1dbe eec2 95be 4676 183f 6ff0 a4be
00000170: 02cf 5abe 9f6d e2bd 5000 82be 71e5 a4be
00000180: 4336 0f3f a60c fcbe 5835 cebe 7669 07bf
00000190: 652e d2be 9e6b c33e bb84 ebbe 587b e9be
000001a0: cbae 89be f539 c2be 768e 96be 3c87 c2be
000001b0: ae88 4ebd de07 b9be faf7 f3be 7840 0cbf
000001c0: e092 c0be 5aac 45be 2c79 4bbe 6c1e 80bd
000001d0: 9100 10be 2d23 e3be 569a 92be ae9e 0f3f
000001e0: 919a f1be 24ed d8be d405 77be 0648 0a3f
000001f0: 1e2d 02be c3f3 ccbe e0a7 a9be 71bb f9be
00000200: 8c78 d9bd dc19 47be 850c a9be 2253 183f
00000210: 451d 30be 7079 eabe ba98 e3be f52e 57be
00000220: 0d56 40bd de4a b4be 58b3 84bd 4018 14be
00000230: 436b 00be 94d6 97be 22c3 25be 3eb5 c5be
00000240: 02d0 b6be 084c 8abe e2b1 883d 2e1a 973e
00000250: 13c6 05bd dc15 4bbe 3c80 a03b 8257 b93c
00000260: 71d7 b0bd 1f7b f1bc 228a 283f f5d9 52be
00000270: 3275 c3bd 59cd 58bd d4e9 6abd 99ff 09be
00000280: f487 9c3e d961 f2be dc9f 6dbe 1be9 4dbe
00000290: aa51 14be 0f29 233f 389e 57be 3c3d 6abe
000002a0: 85ff a4bd 3a91 e5bd 0fdf b53b fa84 17be
000002b0: 2f2c 023e 9c63 12be aa10 0dbe 743a 98be
000002c0: 1f87 543c 0236 bb3c 3522 91be b5ab 10bf
000002d0: 222e 96be 6792 22be 3024 07be be83 033f
000002e0: 9266 19be 0a3a 8abe 816e 37bd 2fc9 cc3e
000002f0: 3fff 11be b0f2 95bd fcfd debe b214 bebe
00000300: da00 d63c 51e2 093d b3f3 49be e9ac 60bf
00000310: f88c 86bd 5e6f a03c 23e7 743e 6770 423c
00000320: 9950 f8bc d673 7bbb c0b1 49bd 373d 053d
00000330: 071e 343e ecba 91bd 6f93 903d 2d7f 16bd
00000340: e4cc 543d 62cb 0c3e b3df 6dbd eca3 97bc
00000350: ee34 db3c d75a 53bd 5012 af3a 55ad 823c
00000360: fccf 9ebd 19ea 9d3d 385f 4bc0 661c e9bd
00000370: 326e 34bd 0390 21bc 1268 ae3d 65c4 5fbd
00000380: b345 c5bd 8adc 443e 9431 8ebd fb32 adbc
00000390: 1eeb 613d 2b6c d0bf e478 0c3d b2b6 a03c
000003a0: 8c19 453c 41f8 ad3d 0929 9bbc 847e a2bd
000003b0: 33d7 8bbc e41e ab3d 16ab 7abd 0ae3 42be
000003c0: fbd6 4dbe e10f 85bd 80a0 f5bd 6c24 503e
000003d0: 82ab 83bd 1050 05bc 44ac f0bd e597 02bf
000003e0: 390f 3f3e 5987 343e 7512 c1bc d656 79be
000003f0: 30a4 6e3c c6f2 febd 09df 37be bca1 f43d
-0.11950707 -0.14405145 -0.4355323 0.51352 -0.25480956 -0.5089671 -0.44064662 -0.28094798
-0.04941924 -0.3972267 -0.07008188 -0.1546252 -0.13805549 -0.36705148 -0.15415347 -0.39541763
-0.40663907 -0.30649123 0.048040688 0.35447183 -0.07993157 -0.15035036 -0.0018414954 -0.087381765
-0.09495019 -0.068202645 0.61881804 -0.19317572 -0.121150404 -0.07505004 -0.032047097 -0.11434742
0.35036048 -0.51560485 -0.15723766 -0.2975086 -0.22848924 0.46369094 -0.2527548 -0.28872573
-0.08183218 -0.1427932 -0.044958245 -0.2236558 0.093996555 -0.12908119 -0.22816272 -0.362782
-0.08257832 0.037282836 -0.31094855 -0.2862941 -0.25719106 -0.13819216 -0.13612832 0.427117
-0.16033535 -0.14874442 -0.10325771 0.49317566 -0.09262599 -0.18383637 -0.46592793 -0.5033551
-0.35267755 -0.32156304 -0.5127435 0.38576087 -0.5384992 -0.7626012 -0.60372037 -0.4783213
-0.106793635 -0.6465718 -0.1878087 -0.19296172 -0.3550026 -0.6033306 -0.27182108 -0.43628806
-0.52117485 -0.29616344 -0.15114531 0.5070413 -0.3920557 -0.38089862 -0.2317289 -0.33620054
-0.15348315 -0.29250282 0.5955547 -0.32214686 -0.2136803 -0.11056065 -0.25390863 -0.322063
0.5594217 -0.492284 -0.40275073 -0.52895296 -0.4105102 0.38168043 -0.45999703 -0.45601916
-0.2689117 -0.37934843 -0.29405564 -0.379938 -0.050423317 -0.36138815 -0.4765013 -0.5478587
-0.37612057 -0.19304028 -0.19870442 -0.062558025 -0.14062716 -0.44362774 -0.28633374 0.561015
-0.47188237 -0.42368424 -0.24123317 0.5401615 -0.12712523 -0.40029725 -0.3313589 -0.4877582
-0.106186956 -0.19443458 -0.33017364 0.5950185 -0.17198665 -0.45795774 -0.4445246 -0.21014006
-0.046957064 -0.3521337 -0.064795196 -0.14462376 -0.12540917 -0.29655898 -0.16187719 -0.3861484
-0.35705572 -0.27011132 0.066745535 0.2951216 -0.0326596 -0.19832557 0.004898099 0.022624735
-0.08634842 -0.029477654 0.65835774 -0.20590957 -0.095438376 -0.05293021 -0.057351902 -0.13476409
0.30572474 -0.47340277 -0.23205513 -0.20108454 -0.14484277 0.63734525 -0.2105645 -0.22874922
-0.08056549 -0.112093404 0.0055502723 -0.1479682 0.12712167 -0.1429581 -0.13775888 -0.29732096
0.0129716685 0.022852901 -0.2834641 -0.56512004 -0.29332072 -0.1587616 -0.13197398 0.513729
-0.14980534 -0.26997405 -0.04478312 0.3999724 -0.14257525 -0.073216796 -0.4355315 -0.37125164
0.026123453 0.033663098 -0.1972187 -0.8776384 -0.065698564 0.019584354 0.23916297 0.011867619
-0.03031187 -0.0038368604 -0.04924178 0.032529082 0.1758958 -0.07115731 0.07059371 -0.036742378
0.05195321 0.1374946 -0.058074664 -0.018510781 0.026758637 -0.051600304 0.0013356898 0.015951792
-0.077545136 0.07710666 -3.1776867 -0.1138237 -0.044050403 -0.009860995 0.085159436 -0.054630656
-0.09632435 0.19224754 -0.0694305 -0.021142473 0.055155866 -1.628301 0.034294978 0.019618366
0.012030017 0.08494616 -0.018940466 -0.07934287 -0.017070388 0.08355501 -0.061198317 -0.19031921
-0.2010154 -0.06497169 -0.119935036 0.20326394 -0.06429197 -0.008136764 -0.11751607 -0.5101302
0.1865815 0.17629756 -0.023568371 -0.24349532 0.014565513 -0.12448649 -0.17956175 0.11944911

decoder.2.bias f4 [13]
00000000: 751b 5cbe a04c efbe 5f40 a6bd af8c 51bf
00000010: 5a4c bebc d745 5ebe 3899 5abe 8771 bebe
00000020: 7894 83be e3e2 2cbf a5fb 36be 08aa 68be
00000030: 2dc5 fbbd
-0.21494849 -0.46738148 -0.081177466 -0.8185529 -0.023229767 -0.2170633 -0.21347511 -0.3719599
-0.2569921 -0.675337 -0.17869432 -0.22721112 -0.12293468
